FullModel(
  (feature_extractor): FeatureExtractor(
    (conv1d_1): Conv1d(20, 32, kernel_size=(3,), stride=(1,), padding=(1,))
    (bn_1): BatchNorm1d(32, eps=1e-05, momentum=0.1, affine=True, track_running_stats=True)
    (conv1d_2): Conv1d(32, 64, kernel_size=(3,), stride=(1,), padding=(1,))
    (bn_2): BatchNorm1d(64, eps=1e-05, momentum=0.1, affine=True, track_running_stats=True)
    (conv1d_3): Conv1d(64, 128, kernel_size=(3,), stride=(1,), padding=(1,))
    (bn_3): BatchNorm1d(128, eps=1e-05, momentum=0.1, affine=True, track_running_stats=True)
    (conv1d_4): Conv1d(128, 256, kernel_size=(3,), stride=(1,), padding=(1,))
    (bn_4): BatchNorm1d(256, eps=1e-05, momentum=0.1, affine=True, track_running_stats=True)
    (conv1d_5): Conv1d(256, 512, kernel_size=(3,), stride=(1,), padding=(1,))
    (bn_5): BatchNorm1d(512, eps=1e-05, momentum=0.1, affine=True, track_running_stats=True)
    (pool): MaxPool1d(kernel_size=2, stride=2, padding=0, dilation=1, ceil_mode=False)
    (dropout): Dropout(p=0.5, inplace=False)
    (relu): ReLU()
    (flatten): Flatten(start_dim=1, end_dim=-1)
    (dense_layer_1): Linear(in_features=512, out_features=256, bias=True)
    (bn_dense_1): BatchNorm1d(256, eps=1e-05, momentum=0.1, affine=True, track_running_stats=True)
    (dense_layer_2): Linear(in_features=256, out_features=128, bias=True)
    (bn_dense_2): BatchNorm1d(128, eps=1e-05, momentum=0.1, affine=True, track_running_stats=True)
  )
  (regressor): Regressor(
    (fc1): Linear(in_features=128, out_features=1, bias=True)
  )
)
We apply the domain adaptation for s to l
Train shape (18224, 50, 20)
Test shape (49018, 50, 20)
Epoch 1/30, Train_RMSELoss: 0.4712, Test_RMSELoss:0.3507
Epoch 2/30, Train_RMSELoss: 0.3345, Test_RMSELoss:0.3218
Epoch 3/30, Train_RMSELoss: 0.3146, Test_RMSELoss:0.3113
Epoch 4/30, Train_RMSELoss: 0.3068, Test_RMSELoss:0.3051
Epoch 5/30, Train_RMSELoss: 0.3008, Test_RMSELoss:0.3047
…
