VAERegressor(
  (conv1): Conv1d(20, 10, kernel_size=(3,), stride=(1,), padding=(1,))
  (bn1): BatchNorm1d(10, eps=1e-05, momentum=0.1, affine=True, track_running_stats=True)
  (conv2): Conv1d(10, 10, kernel_size=(3,), stride=(1,), padding=(1,))
  (bn2): BatchNorm1d(10, eps=1e-05, momentum=0.1, affine=True, track_running_stats=True)
  (conv3): Conv1d(10, 5, kernel_size=(3,), stride=(1,), padding=(1,))
  (bn3): BatchNorm1d(5, eps=1e-05, momentum=0.1, affine=True, track_running_stats=True)
  (fc_mu): Linear(in_features=250, out_features=5, bias=True)
  (fc_logvar): Linear(in_features=250, out_features=5, bias=True)
  (fc1): Linear(in_features=5, out_features=250, bias=True)
  (conv4): ConvTranspose1d(5, 10, kernel_size=(3,), stride=(1,), padding=(1,))
  (bn4): BatchNorm1d(10, eps=1e-05, momentum=0.1, affine=True, track_running_stats=True)
  (conv5): ConvTranspose1d(10, 20, kernel_size=(3,), stride=(1,), padding=(1,))
  (fc4): Linear(in_features=250, out_features=1, bias=True)
  (sigmoid): Sigmoid()
)
We apply the domain adaptation for s to l
Train shape (18224, 50, 20)
Test shape (49018, 50, 20)
Epoch 1/40, Train_RMSELoss: 0.2921, Test_RMSELoss:0.2915
Epoch 2/40, Train_RMSELoss: 0.2030, Test_RMSELoss:0.3004
Epoch 3/40, Train_RMSELoss: 0.1553, Test_RMSELoss:0.3632
Epoch 4/40, Train_RMSELoss: 0.1362, Test_RMSELoss:0.3355
Epoch 5/40, Train_RMSELoss: 0.1315, Test_RMSELoss:0.3150
…
